…
odes=7, seq_len=96, pred_len=24, batch_size=16, lrate=0.0001, dropout_n=0.5, d_llm=768, e_layer=2, head=4, model_path='./gpt2_model', tokenizer_path='./gpt2_tokenizer', weight_decay=0.001, feature_w=0.01, fcst_w=1, recon_w=0.5, att_w=0.01, num_workers=10, epochs=50, seed=6666, es_patience=50, save='./logs/2025-11-04-21:53:48-', num_users=10, frac=1.0, local_ep=5, local_bs=10, bs=32, all_clients=False, verbose=False, threshold=1, temperature=0.8, vae_train_epochs=1, vae_local_epochs=10, shared_size=96)
The number of parameters: 845680
Dual(
  (normalize_layers): Normalize()
  (length_to_feature): Linear(in_features=96, out_features=32, bias=True)
  (token_to_feature): Linear(in_features=768, out_features=32, bias=True)
  (ts_encoder): Encoder(
    (attn_layers): ModuleList(
      (0-1): 2 x EncoderLayer(
        (attention): AttentionLayer(
          (inner_attention): FullAttention(
            (dropout): Dropout(p=0.5, inplace=False)
          )
          (query_projection): Linear(in_features=32, out_features=32, bias=True)
          (key_projection): Linear(in_features=32, out_features=32, bias=True)
          (value_projection): Linear(in_features=32, out_features=32, bias=True)
          (out_projection): Linear(in_features=32, out_features=32, bias=True)
        )
        (conv1): Conv1d(32, 3072, kernel_size=(1,), stride=(1,))
        (conv2): Conv1d(3072, 32, kernel_size=(1,), stride=(1,))
        (norm1): LayerNorm((32,), eps=1e-05, elementwise_affine=True)
        (norm2): LayerNorm((32,), eps=1e-05, elementwise_affine=True)
        (dropout): Dropout(p=0.5, inplace=False)
      )
    )
    (norm): LayerNorm((32,), eps=1e-05, elementwise_affine=True)
  )
  (prompt_encoder): Encoder(
    (attn_layers): ModuleList(
      (0-1): 2 x EncoderLayer(
        (attention): AttentionLayer(
          (inner_attention): FullAttention(
            (dropout): Dropout(p=0.5, inplace=False)
          )
          (query_projection): Linear(in_features=32, out_features=32, bias=True)
          (key_projection): Linear(in_features=32, out_features=32, bias=True)
          (value_projection): Linear(in_features=32, out_features=32, bias=True)
          (out_projection): Linear(in_features=32, out_features=32, bias=True)
        )
        (conv1): Conv1d(32, 3072, kernel_size=(1,), stride=(1,))
        (conv2): Conv1d(3072, 32, kernel_size=(1,), stride=(1,))
        (norm1): LayerNorm((32,), eps=1e-05, elementwise_affine=True)
        (norm2): LayerNorm((32,), eps=1e-05, elementwise_affine=True)
        (dropout): Dropout(p=0.5, inplace=False)
      )
    )
    (norm): LayerNorm((32,), eps=1e-05, elementwise_affine=True)
  )
  (ts_proj): Linear(in_features=32, out_features=24, bias=True)
  (prompt_proj): Linear(in_features=32, out_features=24, bias=True)
)
Start training...
Shared data Epoch [10/10],client_1  Loss: 2.2174
Shared data Epoch [10/10],client_2  Loss: 1.7774
Shared data Epoch [10/10],client_3  Loss: 2.1221
Shared data Epoch [10/10],client_4  Loss: 1.8004
Shared data Epoch [10/10],client_5  Loss: 2.0828
Shared data Epoch [10/10],client_6  Loss: 2.7885
Shared data Epoch [10/10],client_7  Loss: 2.3705
…
