…
sets/ETT-small/', data_path='ETTh1', channel=64, num_nodes=7, seq_len=96, pred_len=24, batch_size=16, lrate=0.0001, dropout_n=0.5, d_llm=768, e_layer=2, head=4, model_path='gpt2', tokenizer_path='gpt2', weight_decay=0.001, feature_w=0.01, fcst_w=1, recon_w=0.5, att_w=0.01, num_workers=10, epochs=100, seed=6666, es_patience=50, save='./logs/2025-05-19-03:11:17-', num_users=100, frac=0.1, local_ep=5, local_bs=10, bs=32, all_clients=False, verbose=False)
Adjusting learning rate of group 0 to 1.0000e-04.
The number of parameters: 1711792
Dual(
  (normalize_layers): Normalize()
  (length_to_feature): Linear(in_features=96, out_features=64, bias=True)
  (token_to_feature): Linear(in_features=768, out_features=64, bias=True)
  (ts_encoder): Encoder(
    (attn_layers): ModuleList(
      (0-1): 2 x EncoderLayer(
        (attention): AttentionLayer(
          (inner_attention): FullAttention(
            (dropout): Dropout(p=0.5, inplace=False)
          )
          (query_projection): Linear(in_features=64, out_features=64, bias=True)
          (key_projection): Linear(in_features=64, out_features=64, bias=True)
          (value_projection): Linear(in_features=64, out_features=64, bias=True)
          (out_projection): Linear(in_features=64, out_features=64, bias=True)
        )
        (conv1): Conv1d(64, 3072, kernel_size=(1,), stride=(1,))
        (conv2): Conv1d(3072, 64, kernel_size=(1,), stride=(1,))
        (norm1): LayerNorm((64,), eps=1e-05, elementwise_affine=True)
        (norm2): LayerNorm((64,), eps=1e-05, elementwise_affine=True)
        (dropout): Dropout(p=0.5, inplace=False)
      )
    )
    (norm): LayerNorm((64,), eps=1e-05, elementwise_affine=True)
  )
  (prompt_encoder): Encoder(
    (attn_layers): ModuleList(
      (0-1): 2 x EncoderLayer(
        (attention): AttentionLayer(
          (inner_attention): FullAttention(
            (dropout): Dropout(p=0.5, inplace=False)
          )
          (query_projection): Linear(in_features=64, out_features=64, bias=True)
          (key_projection): Linear(in_features=64, out_features=64, bias=True)
          (value_projection): Linear(in_features=64, out_features=64, bias=True)
          (out_projection): Linear(in_features=64, out_features=64, bias=True)
        )
        (conv1): Conv1d(64, 3072, kernel_size=(1,), stride=(1,))
        (conv2): Conv1d(3072, 64, kernel_size=(1,), stride=(1,))
        (norm1): LayerNorm((64,), eps=1e-05, elementwise_affine=True)
        (norm2): LayerNorm((64,), eps=1e-05, elementwise_affine=True)
        (dropout): Dropout(p=0.5, inplace=False)
      )
    )
    (norm): LayerNorm((64,), eps=1e-05, elementwise_affine=True)
  )
  (ts_proj): Linear(in_features=64, out_features=24, bias=True)
  (prompt_proj): Linear(in_features=64, out_features=24, bias=True)
)
Start training...
Epoch: 001, Training Time: 11.6471 secs
Epoch: 001, Validation Time: 1.1953 secs
-----------------------
Epoch: 001, Train Loss: 0.5013, Train MSE: 0.4995, Train MAE: 0.5021
Epoch: 001, Valid Loss: 0.5750, Valid MSE: 0.6607, Valid MAE: 0.5657
###Update tasks appear###
Updating! Valid Loss:0.5750, epoch:  1
Adjusting learning rate of group 0 to 9.9975e-05.
…
