…
data/ETT-small/', data_path='ETTh2', channel=64, num_nodes=7, seq_len=96, pred_len=48, batch_size=16, lrate=0.0001, dropout_n=0.5, d_llm=768, e_layer=2, head=4, model_path='./gpt2_model', tokenizer_path='./gpt2_tokenizer', weight_decay=0.001, feature_w=0.01, fcst_w=1, recon_w=0.5, att_w=0.01, num_workers=10, epochs=100, seed=6666, es_patience=50, save='./logs/2025-09-04-21:18:34-', num_users=10, frac=1.0, local_ep=15, local_bs=10, bs=32, all_clients=False, verbose=False, threshold=1, temperature=0.7)
The number of parameters: 1714912
Dual(
  (normalize_layers): Normalize()
  (length_to_feature): Linear(in_features=96, out_features=64, bias=True)
  (token_to_feature): Linear(in_features=768, out_features=64, bias=True)
  (ts_encoder): Encoder(
    (attn_layers): ModuleList(
      (0-1): 2 x EncoderLayer(
        (attention): AttentionLayer(
          (inner_attention): FullAttention(
            (dropout): Dropout(p=0.5, inplace=False)
          )
          (query_projection): Linear(in_features=64, out_features=64, bias=True)
          (key_projection): Linear(in_features=64, out_features=64, bias=True)
          (value_projection): Linear(in_features=64, out_features=64, bias=True)
          (out_projection): Linear(in_features=64, out_features=64, bias=True)
        )
        (conv1): Conv1d(64, 3072, kernel_size=(1,), stride=(1,))
        (conv2): Conv1d(3072, 64, kernel_size=(1,), stride=(1,))
        (norm1): LayerNorm((64,), eps=1e-05, elementwise_affine=True)
        (norm2): LayerNorm((64,), eps=1e-05, elementwise_affine=True)
        (dropout): Dropout(p=0.5, inplace=False)
      )
    )
    (norm): LayerNorm((64,), eps=1e-05, elementwise_affine=True)
  )
  (prompt_encoder): Encoder(
    (attn_layers): ModuleList(
      (0-1): 2 x EncoderLayer(
        (attention): AttentionLayer(
          (inner_attention): FullAttention(
            (dropout): Dropout(p=0.5, inplace=False)
          )
          (query_projection): Linear(in_features=64, out_features=64, bias=True)
          (key_projection): Linear(in_features=64, out_features=64, bias=True)
          (value_projection): Linear(in_features=64, out_features=64, bias=True)
          (out_projection): Linear(in_features=64, out_features=64, bias=True)
        )
        (conv1): Conv1d(64, 3072, kernel_size=(1,), stride=(1,))
        (conv2): Conv1d(3072, 64, kernel_size=(1,), stride=(1,))
        (norm1): LayerNorm((64,), eps=1e-05, elementwise_affine=True)
        (norm2): LayerNorm((64,), eps=1e-05, elementwise_affine=True)
        (dropout): Dropout(p=0.5, inplace=False)
      )
    )
    (norm): LayerNorm((64,), eps=1e-05, elementwise_affine=True)
  )
  (ts_proj): Linear(in_features=64, out_features=48, bias=True)
  (prompt_proj): Linear(in_features=64, out_features=48, bias=True)
)
Start training...
aggregation weights dict_items([('client_1', 0.08492839526242098), ('client_4', 0.09340135504512383), ('client_5', 0.09380054580761152), ('client_7', 0.08095326247449636), ('client_3', 0.08316775574073888), ('client_6', 0.07828605881693382), ('client_9', 0.1437934261848784), ('client_8', 0.13301304723514773), ('client_10', 0.12512442215303896), ('client_2', 0.08353173127960954)])
…
